…
##########TEST 195:	./train_mfcc/mfcc/mot-027.txt
##########TEST 196:	./train_mfcc/mfcc/nam-040.txt
##########TEST 197:	./train_mfcc/mfcc/hai-062.txt
##########TEST 198:	./train_mfcc/mfcc/mot-074.txt
##########TEST 199:	./train_mfcc/mfcc/nam-056.txt
Model: ./train_mfcc/model/model_202.json ; ./train_mfcc/model/model_202.h5

Loading model from disk ...
 Done!
Model: "sequential"
_________________________________________________________________
Layer (type)                 Output Shape              Param #   
=================================================================
conv1_1 (Conv2D)             (None, 45, 45, 32)        320       
_________________________________________________________________
activation (Activation)      (None, 45, 45, 32)        0         
_________________________________________________________________
batch_normalization (BatchNo (None, 45, 45, 32)        180       
_________________________________________________________________
conv1_2 (Conv2D)             (None, 45, 45, 32)        9248      
_________________________________________________________________
activation_1 (Activation)    (None, 45, 45, 32)        0         
_________________________________________________________________
batch_normalization_1 (Batch (None, 45, 45, 32)        128       
_________________________________________________________________
max_pooling2d (MaxPooling2D) (None, 22, 22, 32)        0         
_________________________________________________________________
dropout (Dropout)            (None, 22, 22, 32)        0         
_________________________________________________________________
conv2_1 (Conv2D)             (None, 22, 22, 64)        18496     
_________________________________________________________________
activation_2 (Activation)    (None, 22, 22, 64)        0         
_________________________________________________________________
batch_normalization_2 (Batch (None, 22, 22, 64)        256       
_________________________________________________________________
conv2_2 (Conv2D)             (None, 22, 22, 64)        36928     
_________________________________________________________________
activation_3 (Activation)    (None, 22, 22, 64)        0         
_________________________________________________________________
batch_normalization_3 (Batch (None, 22, 22, 64)        256       
_________________________________________________________________
max_pooling2d_1 (MaxPooling2 (None, 11, 11, 64)        0         
_________________________________________________________________
dropout_1 (Dropout)          (None, 11, 11, 64)        0         
_________________________________________________________________
flatten (Flatten)            (None, 7744)              0         
_________________________________________________________________
dense (Dense)                (None, 512)               3965440   
_________________________________________________________________
activation_4 (Activation)    (None, 512)               0         
_________________________________________________________________
batch_normalization_4 (Batch (None, 512)               2048      
_________________________________________________________________
dropout_2 (Dropout)          (None, 512)               0         
_________________________________________________________________
dense_1 (Dense)              (None, 10)                5130      
_________________________________________________________________
activation_5 (Activation)    (None, 10)                0         
=================================================================
Total params: 4,038,430
Trainable params: 4,036,996
Non-trainable params: 1,434
_________________________________________________________________
None
Begin Evaluate Model .............

 32/200 [===>..........................] - ETA: 7s - loss: 1.4612 - accuracy: 1.0000160/200 [=======================>......] - ETA: 0s - loss: 1.4670 - accuracy: 0.9937200/200 [==============================] - 2s 8ms/sample - loss: 1.4659 - accuracy: 0.9950
…
